cnn_oracle.pth (torch, 403959 bytes, 7 tensors)

net.0.weight f4 [16, 1, 3]
00000000: 36e3 5338 c1e9 e13d 03db e1be 5bee 09bf
00000010: b5f3 a93d 32a5 f1be df9a 73be d305 bbbe
00000020: 84c1 223e c718 2cbd 6d6f 0f3f 1fe0 59bd
00000030: 6285 e33e 6f71 c5be f0a0 a63d a5d5 39be
00000040: 8aed 5d3e f5a3 8abe 961d c13e a3d5 d23e
00000050: 4c70 04bf cc02 04bd 8dd3 d03e e06e d63e
00000060: b405 1cbe 39fa debd 3d3f b2be 41de e1be
00000070: 2d9e cebe b07e 163d e774 ab3e 5888 8d3d
00000080: 9592 b33d 89db ccbd 50c3 2fbe 92b0 a63e
00000090: 9c8b 95be a8b0 d0bd eb93 98be bf10 e33d
000000a0: 7a68 dbbe 14ac 873e 9e31 b53d 4a2d 1e3e
000000b0: c4e5 acbe 615c 91be b38c a0bc 8c6a 253d
5.0517927e-05 0.11030913 -0.44112405 -0.53879327 0.082984366 -0.47196347 -0.23789547 -0.3652788
0.15894133 -0.042015817 0.560294 -0.053192254 0.444377 -0.38563105 0.08136165 -0.18147905
0.21672645 -0.27078214 0.37717885 0.41178617 -0.5173385 -0.03222923 0.407864 0.41881466
-0.1523655 -0.1088757 -0.34813872 -0.4411488 -0.40355054 0.036741912 0.33487627 0.06910771
0.08768193 -0.100028105 -0.1716435 0.32556587 -0.29208076 -0.101899445 -0.29800352 0.110871784
-0.42853147 0.26498473 0.08847354 0.15446964 -0.33769047 -0.28390792 -0.01959834 0.040384814

net.0.bias f4 [16]
00000000: 31a2 9cbe aadd e3bd 33df 123f 1174 bcbe
00000010: 9c3d 97be 4773 d3be cb5e 1f3e 5a3a 70be
00000020: e274 06be d5a9 e23e b1bb 843e 7227 803e
00000030: e612 9bbb b91a a7bd 2a3d 7ebe a1fa a1bd
-0.30592492 -0.111262634 0.57371825 -0.36807302 -0.29539192 -0.41298887 0.15563504 -0.2345976
-0.13130525 0.44270197 0.25924447 0.25030094 -0.0047324775 -0.08159394 -0.2482802 -0.07909132

net.2.weight f4 [32, 16, 3]
00000000: 46c3 9bbd 8f0b 84bd ec3c 103d 348c fb3d
00000010: 5c6d edbd a130 3a3d ae63 f7bc 0b40 64bd
00000020: c3ef bbbd eecb f5bd 7793 723d c138 903d
00000030: 997f d1bd af2e 673c 3c85 cbbd 6529 083d
00000040: 2448 07bd 2574 86bc c826 543d bffd d53d
00000050: 1ab5 0dbd 0053 5bbd 3009 2bbc 5a8d efbc
00000060: 2fa3 f13c 77d0 063d 3764 a4bb ced2 1bbe
00000070: cb6f 09be 361d a6bd cd19 b5bd 2bb5 b33d
00000080: 5211 bdbd 9bc9 05be 7eed a53c ac25 e6bd
00000090: d32d 79bd 50a1 89bd 5d78 b6bd d1d0 adbd
000000a0: b40a 393b 6bb9 2cbd 831d 8e3c 06af b73d
000000b0: b433 28bd 0175 fb3d 1fc9 ad3d 4f06 b4bd
000000c0: ca17 cdbd 0dfb a6bc 179e ebbd 11f0 873d
000000d0: 8e0f 1bbd 31fd 0439 f318 2e3d fa6f b9bd
000000e0: 5c58 b83d 7cb7 c63c dd9a 86bc a48d 0bbd
000000f0: e1d6 c43d 3777 0d3e f5e2 06be 8702 1abc
00000100: 862a 473c 68c9 32bd dd60 753b 6237 a9bd
00000110: a908 0bbe 6642 9c3c cabc e8bd 790b bbbd
00000120: 794d ca3b cf78 c6bd d694 c43d 4ea3 20bd
00000130: 7cfa ddbd ae78 f43d ee57 a4bd 0759 dfbd
00000140: d292 0fbd b3f6 d73c 2e99 9c3d f636 12be
00000150: 9abc 9fbc f4e4 883d 6612 b6bd 400f b8bd
00000160: 778f 823d bcc3 f73c c045 8b3d b4cb 383d
00000170: 6e6a c93b b1bb efbd 06d3 fd3d 2631 8cbd
00000180: 1c8d bf3d 9d92 9cbc 537c 5ebc 1277 b1bd
00000190: c5c8 ab3b 4e54 d8bc 3f24 75bd 9100 c13a
000001a0: 24c4 f0bc e696 ecbb 81b6 acbd df0e ecbd
000001b0: 270e ddbd 26f0 d43d eb2e a7bd dcd6 aa3c
000001c0: 8eed c3bc 8a2a 2c3d c478 993c 58fa a63c
000001d0: a92d 9cbd 3914 fc3d a12b 27bd 3993 913d
000001e0: c079 cc3c 7994 07be ca61 2f3d fd91 0b3e
000001f0: 93a9 86bd 6885 0dbe c532 b63d 63c4 0f3d
00000200: 50db 2a3d 5d4a db3d 6bac 4dbd 8094 463c
00000210: 9076 4f3d a26f 3b3c 1947 11be 73a6 82bd
00000220: b141 173d 943c febc 0f46 f03d 1993 e4bc
00000230: cd6f 58bd 972c e33d b3ac cbbd 91e7 77bc
00000240: 3be3 393d 8d0e 10be 4fb0 afbb b39d 8bbd
00000250: 00dc b7bd ab5b 043e d629 8dbd 53a6 bdbc
00000260: 2476 18bd ac25 0e3e 1264 553d f5fe 753b
00000270: fe1d a9bd f8d5 c0bd f8c4 95bd 9425 ebbd
00000280: 2592 e53d 89ca 743c 1fe7 013e 8bb5 f6bc
00000290: 375b c93d e43b 9dbd 2a20 a8bb af1e a5bd
000002a0: 3c51 fabd b31d 82bd 4a49 1cbd 0bff 09be
000002b0: 4327 773c 49da d0bd 2ec5 543d 031b 053e
000002c0: 91ed 51bd 3f8d 07be fe63 cc3d 6b82 a1bd
000002d0: 3c01 bbbc 9b16 023b 3d9e cfbd 6ac6 cb3c
000002e0: dd7a 7f3d 6586 a5bc 0244 04be da2a 7ebd
000002f0: 6d7c d63c 5fe1 10be 2b2c d6bd b934 e7bd
00000300: 2e5c cd3d a5ed 903d bf96 693d 66da a03d
00000310: 8e3d c4bb f1a8 8f3d 622e eb3d e439 2a3d
00000320: 26d1 d03b c671 fd3d d037 eebd dcd9 4c3d
00000330: b048 0dbe b23b 3fbd cf97 33bd 1cbe ee3d
00000340: a3f9 6abd 56f7 2bbd 59c2 b8bd 9b70 eabd
00000350: 76b1 163c abe7 09be 9b07 f4bd 5b40 bf3d
00000360: 4b3e 713c 6952 b73d 478d 6b3d 7966 723b
00000370: ea90 0cbe 3adb b63d cbee f4bd d7a5 10be
00000380: 90d5 15bc d2fc 443d 4600 cd3c 8103 6b3c
00000390: 51b1 c73d 159f eabc 01dc ecbd 675f 03be
000003a0: 9940 08bd c347 d3bd fc43 333c e0ad aabd
000003b0: 8385 ccbc fffc 09be 50cd 0b3d 67b0 9f3c
000003c0: 972f 0e3d 7a69 0fbe 9568 b1bd d2d9 fb3d
000003d0: d967 87bd 90b7 813c c3cb 8e3c 0e3a b8bc
000003e0: c376 023e 32a9 06be 7551 febd da07 d6bd
000003f0: e96f 05be b882 b23d 7a08 823d 6f22 a6bd
-0.07605605 -0.06447517 0.03521435 0.12282601 -0.11593124 0.045456532 -0.030198898 -0.05572514
-0.0917659 -0.12001787 0.059222665 0.07042075 -0.102294154 0.014110251 -0.09937522 0.033242602
-0.033027783 -0.016412804 0.051794797 0.10448789 -0.03459654 -0.05354595 -0.010439202 -0.029242206
0.029496757 0.03291365 -0.0050168294 -0.15217134 -0.13421552 -0.0811104 -0.08842812 0.087747894
-0.09231819 -0.13065188 0.020254847 -0.11237654 -0.060834717 -0.06720221 -0.08909676 -0.08487094
0.002823514 -0.042169016 0.017348057 0.0896893 -0.041064933 0.12278176 0.084856264 -0.08790266
-0.10014303 -0.020383382 -0.115047626 0.06637586 -0.03785663 0.00012682822 0.042504262 -0.09054561
0.09001228 0.024257414 -0.016431266 -0.034070626 0.096112974 0.13815008 -0.13172515 -0.009400017
0.0121561345 -0.043649107 0.0037441768 -0.082625166 -0.13577522 0.01907463 -0.11364134 -0.091330476
0.0061737862 -0.09691011 0.09598701 -0.03921824 -0.10838792 0.1193708 -0.08024584 -0.109056525
-0.035052128 0.026362753 0.07646404 -0.14278778 -0.019499112 0.06684294 -0.08890228 -0.08987284
0.0637502 0.0302447 0.06800413 0.04511614 0.0061467206 -0.11705721 0.12393765 -0.06845312
0.09353086 -0.01911288 -0.013579446 -0.08665289 0.0052424395 -0.026407387 -0.05984902 0.00147249
-0.029390402 -0.007220137 -0.08433247 -0.11526274 -0.10793715 0.10397367 -0.08163246 0.020854406
-0.023916986 0.042032756 0.018734343 0.020383045 -0.076258965 0.12308545 -0.040813092 0.071081586
0.024960399 -0.13240232 0.04281787 0.13629909 -0.065753125 -0.13820422 0.08896402 0.0350994
0.04171306 0.10707543 -0.05021326 0.012120366 0.05065018 0.01144019 -0.14187278 -0.06379404
0.036927883 -0.031034745 0.117321126 -0.027902173 -0.052840997 0.11092489 -0.09945049 -0.015130893
0.04538272 -0.1406805 -0.005361594 -0.06817188 -0.089775085 0.12925594 -0.06892745 -0.023150599
-0.037222043 0.13881558 0.052097388 0.0037536 -0.08257674 -0.09415811 -0.073129594 -0.11481777
0.112095155 0.014940866 0.12685822 -0.030115863 0.09831851 -0.07677439 -0.0051307874 -0.08062493
-0.122225255 -0.06353321 -0.03815583 -0.13476197 0.015085044 -0.101978846 0.051945858 0.12998585
-0.05125195 -0.13237475 0.099800095 -0.078862034 -0.022827737 0.00198499 -0.101376034 0.024874885
0.06237303 -0.020205686 -0.12916568 -0.062052585 0.026182378 -0.14148472 -0.10457643 -0.11289353
0.100273475 0.07076577 0.05702853 0.07854156 -0.005988783 0.07014645 0.11483456 0.041559115
0.0063725887 0.12375216 -0.11631739 0.050012454 -0.1379726 -0.04668779 -0.043845948 0.11657354
-0.05736698 -0.041983925 -0.09021444 -0.11447259 0.009197583 -0.1346728 -0.11915513 0.09338447
0.014724324 0.08951265 0.05750778 0.0036987348 -0.13727155 0.08928533 -0.11959609 -0.14125763
-0.009145156 0.04809267 0.025024544 0.014344097 0.09750617 -0.02864031 -0.115654 -0.12829362
-0.03326473 -0.10316422 0.010941502 -0.08333945 -0.024966007 -0.13475417 0.034131348 0.019493295
0.034713354 -0.1400508 -0.086625256 0.12297405 -0.06611604 0.0158346 0.017431146 -0.02248862
0.12740617 -0.1315048 -0.124178804 -0.10450716 -0.13030972 0.08716339 0.06349273 -0.081120364

net.2.bias f4 [32]
00000000: 9985 a0bd b10f d0bd b211 ac3d 9f6a 1e3d
00000010: df42 07be 414b 13be aa5a 5dbd e809 67bd
00000020: 6665 0ebe de4e 523d 1a86 cfbd 6026 003e
00000030: 9f5b 003c 8181 07be 48ca 2ebd c9cd 8cbc
00000040: 048a 0fbe e4e3 89bd f6c4 363d a4b6 e23d
00000050: 1883 a5bd 68a0 7e3d 2530 743c 96b0 9f3d
00000060: 2cee 153d 9e8d d4bd defe 193d 0027 4c3d
00000070: 3706 5b3c 1839 003e 3bf1 babd a370 8a3d
-0.07837982 -0.10159243 0.084018126 0.0386759 -0.13209103 -0.14384176 -0.054041542 -0.05640593
-0.13905868 0.051344745 -0.10133 0.12514639 0.007834344 -0.13232996 -0.04267338 -0.01718797
-0.14017493 -0.0673292 0.04462143 0.11069992 -0.08081645 0.062164694 0.014904057 0.07797353
0.03660409 -0.10378574 0.037596576 0.04984188 0.013368181 0.1252178 -0.09128042 0.06759765

net.5.weight f4 [64, 1536]
00000000: 0cc5 083c 8577 7d3c 997c ac3b 718d 4a3c
00000010: 112e a23c e439 253c 07f0 1a3c 8448 90bc
00000020: fce9 a1bc dbeb 83bb a91e bcbc a1d8 8a3c
00000030: 6774 08bc bef5 8cbc 2d21 b4bc ca42 31bc
00000040: a6b7 723b e2f4 853b d81c b239 f29a 763c
00000050: f38d 303c 3d87 80bc e45f ca3c e6c8 5abc
00000060: 9514 aebc 5445 c5bc 696e eb3b ee5b c1bb
00000070: 872a 423b 3775 9f3c 8ae9 1cbc abaf 4b3c
00000080: 8720 ab3c 4054 a7bc 3384 913b f375 953c
00000090: b3c8 f93b 33cf 86bc 5f6d b9bc a657 a33c
000000a0: b4bf 3e3c 4b7e 833b fb70 09bb ab20 543c
000000b0: 0e25 f4bb 2808 b93b b545 373c b90a a2bc
000000c0: 1e96 373c 5011 873c 06bf cd3b 020e 0dbc
000000d0: c083 9bbc 17a1 c13c 917b ab3c e0f8 b1bc
000000e0: 5992 633c aa95 c33b 30f4 9e3c dd6e bcbc
000000f0: 1d6d 3dbc fda6 0cbc 94bb e93b bdb5 b1bc
00000100: c3b7 00bc e200 5fbc 503e d13b f20d 283c
00000110: ca65 2abc b760 29bb ad19 b8bc 73c1 96bb
00000120: d56c c13c ff62 dc3a 3d9f 013c 65fe 8cbc
00000130: 6d8f 913c e256 ccbc 9a46 ffbb 1416 823c
00000140: 1c80 813b 8608 123a 0a15 813c e375 74bc
00000150: 3290 c63b c7ba 75bb ecab b2bc e476 c23c
00000160: a86d fa3b 830e 303b d203 c23b da6a 30bc
00000170: c7d9 7f3c c85c 8f3b 11fb b63c f6f7 923a
00000180: d929 b7bc c1b7 3b3c 76b0 6c3c 5071 633c
00000190: ee5b 303c 54a0 25bc 078c 9f3b 51f3 7bbc
000001a0: 1208 573b 65dd 2eb9 e39d 783b 2420 dcbc
000001b0: 0bc1 b9bb c199 46bc 933d 89bc 90ab bdbc
000001c0: 125c 5cbb 990b 7dbc 68f8 033c 0a54 c33a
000001d0: fd5f 2639 ac47 373b 7ba2 e0bc 1731 8f3c
000001e0: a26d 3a3b 5b1d 51bc d1c2 3e3b 79bf a3b9
000001f0: 33a5 273c 491d 8a3c 0d90 c5bc 5838 24ba
00000200: 6a70 f3bb 156c 47bc 0817 a1bc 0871 d9ba
00000210: 79e2 62bc e370 703c 5e0d 5b3c 7b8d cebb
00000220: 6140 403c 5315 163c dcee dbbc e607 37ba
00000230: f919 acba 295b d13b 2f95 4c3c 83cf e83b
00000240: 1ac9 cdbc 8615 793b c022 7f3c 64cc 7e3c
00000250: 21f6 1c3c f2e1 e9bc 13ec 4a39 00c3 03bc
00000260: cfdf d63b 0139 8abb 0087 a0bb 2f39 c8bc
00000270: 8067 96ba 067b 373b 8ec3 abba 90fb 91bc
00000280: ac38 bbbb 1414 6bbc 37ea eabc 9b2a 4cbc
00000290: 4728 1c3c 0194 a7bc b91b 8cbc a79c e3bc
000002a0: e451 f0bc 6b8b 54bc fa30 983c a418 00bb
000002b0: 0ced 373c 7024 c3bc 8aaa f4bc f086 e23b
000002c0: e478 15bc 485b 613c b103 99bc 130c 78bc
000002d0: e7c0 8fbc 393c e6bb efc5 03bc a017 313c
000002e0: d976 cbbc 9a67 f5bc 3545 d7bc 13fb 00bd
000002f0: e086 793a f69e d6bb e2e9 c13b bbc0 d43b
00000300: 8537 52bc a009 febb 7d42 88bc 4735 b8bc
00000310: 62c5 1dbc 3ac9 b23a 9693 19bc f015 c8bc
00000320: fdc7 933b 0c26 553c 2097 ca3c 10a1 9bbc
00000330: f1c5 82bc cb31 003c d716 9139 1048 50bc
00000340: ca1a c93b ed9b 363c 9f2f c53b b48d 43bc
00000350: 869b 893c d954 d83b dca4 9aba f720 69bc
00000360: 8f8c e73b 68a9 aa3b 264b 74bc c2d8 9cbc
00000370: 53d5 24bc ea95 f33b a239 2b3c e838 cf3b
00000380: fd6b 96bc cf30 c53c 2fe8 ccbc d3f7 babb
00000390: d2da b03c 7223 50bb 7a01 57bc 3a14 c0bc
000003a0: 93b1 e03a daab 1abb 4d8f 943c e5a5 b93c
000003b0: fe5c 4dbc ba96 993b 9ea7 cd3c 2f54 8abc
000003c0: 9de6 a2bc bab2 1fbc 1edb 9e3c f07d dcbc
000003d0: 316a dfbc 0447 cfbb d7ba 87bc 6a13 693c
000003e0: 0857 91bc adbb 9f3b 0c00 dbbc b815 cfbb
000003f0: b699 e5bc fca1 39bc f187 dbbb 277d 3e3c
0.008347761 0.01547039 0.0052638766 0.012362824 0.019797357 0.010084603 0.009456641 -0.017612703
-0.019764893 -0.004025919 -0.022963839 0.016949 -0.008328534 -0.017207023 -0.021988476 -0.010819146
0.0037035733 0.00408803 0.00033972296 0.01505159 0.010776031 -0.015689487 0.024703927 -0.013353562
-0.021250049 -0.02408091 0.007184793 -0.0059008515 0.00296274 0.019465072 -0.009577164 0.012432019
0.020889534 -0.020425916 0.004440808 0.01824472 0.007622802 -0.016456222 -0.02263516 0.019939255
0.011642385 0.004012858 -0.0020971883 0.012947242 -0.0074507063 0.0056467243 0.011186053 -0.019780504
0.011205224 0.016487747 0.0062788753 -0.008609297 -0.018983722 0.023636384 0.020932944 -0.021725118
0.0138898725 0.005968769 0.019403547 -0.023002082 -0.011561659 -0.008584735 0.0071329568 -0.021693105
-0.007856312 -0.01361105 0.006385602 0.010257231 -0.010400245 -0.0025845 -0.02247318 -0.0046006977
0.023611465 0.0016814171 0.0079115005 -0.017211149 0.017768586 -0.024943773 -0.007790399 0.015879668
0.0039520394 0.0005570728 0.015757103 -0.0149206845 0.00605967 -0.0037495361 -0.021810494 0.023738332
0.0076424666 0.0026864118 0.0059208656 -0.010767663 0.015615887 0.004375074 0.022336515 0.0011212814
-0.022358822 0.011457385 0.014446368 0.013881996 0.010764105 -0.010109026 0.0048689875 -0.015377835
0.0032811207 -0.00016676409 0.0037935905 -0.026870795 -0.0056687645 -0.012121619 -0.016752994 -0.023153096
-0.0033624214 -0.01544466 0.00805483 0.0014902365 0.00015866752 0.0027966304 -0.027421227 0.017479463
0.0028446694 -0.012763347 0.002910782 -0.0003123244 0.010232258 0.016859667 -0.02411654 -0.00062644994
-0.0074291723 -0.012171765 -0.019664302 -0.0016589472 -0.013847941 0.014675352 0.013369886 -0.006303487
0.011734099 0.0091603575 -0.026847295 -0.0006982073 -0.0013130299 0.006389041 0.01248674 0.0071048154
-0.025120307 0.0038007214 0.01557225 0.01555166 0.009580166 -0.028550122 0.00019352166 -0.008042097
0.006557442 -0.004218221 -0.0048989058 -0.02444133 -0.0011474937 0.0027996912 -0.0013104544 -0.01782015
-0.005713543 -0.014348049 -0.028676135 -0.01246133 0.009531087 -0.020456316 -0.017103063 -0.027784659
-0.029335923 -0.012972693 0.018578041 -0.0019545937 0.01122595 -0.023821086 -0.029866476 0.0069130585
-0.009123061 0.013754673 -0.018678518 -0.0151395975 -0.017548038 -0.007026222 -0.0080427965 0.010808855
-0.024836944 -0.029956628 -0.026278118 -0.031489443 0.0009518694 -0.0065497113 0.0059177736 0.006492702
-0.01283062 -0.0077526122 -0.016633267 -0.022486342 -0.009629579 0.0013640292 -0.009373566 -0.024424523
0.0045099244 0.013009559 0.024730265 -0.018997699 -0.015963526 0.007824372 0.00027673572 -0.012712494
0.0061372267 0.011145574 0.00601764 -0.01193564 0.016797792 0.0066019115 -0.00117984 -0.014229051
0.0070663164 0.005208183 -0.014910495 -0.019146327 -0.010060626 0.0074336426 0.010450752 0.0063239224
-0.01836204 0.024071125 -0.025013058 -0.0057058125 0.021588717 -0.0031759408 -0.013122911 -0.023447145
0.0017142765 -0.0023600967 0.018134737 0.022662112 -0.012534378 0.0046871575 0.02510434 -0.016885845
-0.019885356 -0.009747202 0.019391593 -0.02691552 -0.027272316 -0.0063256044 -0.016568584 0.01422582
-0.017741695 0.0048746676 -0.02673342 -0.0063197277 -0.028027397 -0.011330124 -0.006699555 0.011626518

net.5.bias f4 [64]
00000000: b0aa 693c c18f bbbc 0824 a3bb 4ab0 fdbb
00000010: 1451 753c 7de9 853b 3707 ee3c fc45 81b9
00000020: 15e1 d83c 9c33 5ebc de4f b8bc 3d3d 20bc
00000030: 5288 3e3c 7f19 013d 7de7 9c3c 18b3 003d
00000040: 8e06 57bc acbf d13c 315c e2bc 897e cb3c
00000050: da2c a0bc 2971 c83a dd81 123d 3199 a63b
00000060: 8cea b8bc f956 a0bc f00f 58bc 0ad6 043c
00000070: ecaa f3bc 6ed2 373b 4a9f 873c 8a88 f8ba
00000080: 23fb 05bc 8b2c 833c 9876 9bbc d476 b53c
00000090: 2703 5b3c 3fb7 5a3b 0306 44bb bbfa 033b
000000a0: 6538 f03c 04cb 1b3c f2c6 48bc f41a f5bc
000000b0: 3b02 ef3b 7fad 093d 8ace 4e3c 7b11 14bb
000000c0: 9479 ad3b b735 1c3a 6d5c 26bb b9e7 e9bb
000000d0: 1b4b ca3c 5988 57bc db54 083c 7bb8 b83c
000000e0: 201f a13b 407c 863c d9fa cabc 5401 26bc
000000f0: 043b 05bb 0b0a b73c 82a4 dd3c 62f2 f23b
0.0142618865 -0.022895696 -0.0049786605 -0.0077419626 0.014972944 0.004086672 0.029056175 -0.0002465694
0.026474515 -0.013562109 -0.022499021 -0.009780225 0.011629181 0.031518456 0.019153351 0.031420797
-0.013124121 0.025604092 -0.02763185 0.02484061 -0.019552637 0.0015292513 0.03576838 0.00508418
-0.022572778 -0.019572722 -0.013187394 0.0081076715 -0.029744588 0.002804901 0.016555447 -0.001896159
-0.008177551 0.01601245 -0.018977448 0.022151388 0.013367451 0.0033373383 -0.002991081 0.002013846
0.029323766 0.009508852 -0.0122544635 -0.029920079 0.007293967 0.033612724 0.012622485 -0.0022593427
0.0052940343 0.0005958932 -0.002538468 -0.007138219 0.024694016 -0.013155066 0.008321012 0.022548905
0.0049170405 0.016416669 -0.024777817 -0.010132153 -0.0020329366 0.022343656 0.027055983 0.007414148

net.7.weight f4 [1, 64]
00000000: a17c ebbd a245 9dbd c81f 4cbd ba66 bfbd
00000010: 1c3b 873d 897d 88bd bf7d ac3d cc31 c3bd
00000020: dfee c23d 841c e0bc 1452 33bd 1807 f0bb
00000030: f28b 8a3d 599e 7a3d 56de b3bd ba7c 803d
00000040: a07c a2bd b89b ff3d a770 53bd 45b7 cb3d
00000050: 3ca0 92bd f267 02bd cd1d 7e3d 301b 91bc
00000060: adf7 adbd fc9c eebd 305e e5bd 9f40 75bd
00000070: 5cc2 d1bd af3f e7bd b44d fb3d e259 973d
00000080: 25bf 12bc 7037 8cbd 2010 4bbd e9e0 c73d
00000090: 2cef 0b3d 3f06 2abc a1e5 e6bd 2475 bd3d
000000a0: a1d4 c63d bccc c8bd 3088 c73d a945 6abd
000000b0: 7e91 eabc 0fe7 783c 33e1 d8bd 50b6 c0bd
000000c0: a89c d8bd e499 96bd 7404 d7bd 6c58 b23d
000000d0: 9277 713d 94f1 81bd 98c0 ec3c 0051 c1bd
000000e0: 70d9 833d 6b82 fe3d c8c9 4fbd 9478 9bbd
000000f0: c6db de3d a4bc d83c 81e2 bc3d 37df dfbb
-0.114983805 -0.07679297 -0.049834996 -0.093457654 0.06603071 -0.06664569 0.08422422 -0.095309824
0.09518217 -0.027357347 -0.043779448 -0.0073250644 0.06764974 0.06118617 -0.087826416 0.0627379
-0.079339266 0.12480873 -0.051621106 0.09947065 -0.071594685 -0.03183741 0.06204014 -0.01771316
-0.08494506 -0.11651036 -0.111996055 -0.05987608 -0.10242149 -0.112914436 0.1227068 0.07390191
-0.008956705 -0.06846511 -0.049575925 0.09759695 0.03416364 -0.010377466 -0.11274267 0.092508584
0.097085245 -0.09804675 0.097427726 -0.05719534 -0.02863383 0.015191807 -0.10589828 -0.09409773
-0.10576755 -0.07353571 -0.10498896 0.087082714 0.05895192 -0.063449055 0.02890043 -0.09439278
0.06437957 0.12427219 -0.050729543 -0.07591358 0.10881762 0.026457138 0.0922289 -0.006832029
